Models/multi_agent_rl_1.pt (torch, 3959 bytes, 4 tensors)

fc1.weight f4 [32, 5]
00000000: 6f7c 81be ea28 953d 25cb 093e b2ee bdbe
00000010: 900c 93bc e679 8cbe 9a58 9b3e 34ab d9bd
00000020: 3c1e 6c3e 2897 dd3d 70a1 c3be 4c28 af3e
00000030: 200a c1bc 00c0 7538 8886 afbe 9d11 20be
00000040: d86d 623e 3531 523e 402d f13d fac7 dabe
00000050: ed50 cfbe b26a 833e 7e36 5ebe 662e 943e
00000060: ee0b d53e c346 c93e 8107 a23e 45a6 1a3f
00000070: f488 ab3e 1b63 9cbe 55cd ad3d 88d2 433d
00000080: 1460 aebd 9e04 c03e b255 dd3e d0fb 81be
00000090: 64aa debe b87c 0fbd 4840 c0be 7842 9a3d
000000a0: b6aa 44be 511b bf3e 5ce3 293f d814 d73e
000000b0: 987a 8d3e db3d 813e 1e8a bbbe d616 203e
000000c0: 0c03 c4bd 4e21 8b3e 9918 cbbe 2a73 39be
000000d0: 88ad 2f3d 485c 85bd b8b7 b53e acc2 85bd
000000e0: cccc e7bd 50d0 8bbc e040 313e faf9 d63e
000000f0: cf0f d23e 0d2d c73e 685a 033d 409d f13b
00000100: 2af8 99be 7e91 f1be d082 953e 785c 6d3e
00000110: 2af5 cabe 612b 4ebe f08d d0be 3262 90be
00000120: 008f 163d 0583 cbbe 7868 fc3d e0d6 4cbd
00000130: 2546 163f aa27 2a3e 7828 25bd 5811 2fbe
00000140: 9ea0 dfbe 3cac dbbe 8644 03be 2402 edbd
00000150: 4440 83be 775c ad3e 61e8 ee3e 53f8 3e3e
00000160: a898 c1bd a4fc 9f3e e0cd 04bc 52ce c0be
00000170: 4c3d dc3e 161b 75be 4863 303d 3341 2e3c
00000180: 40f4 7ebd 3001 35be 3c30 1a3e 8034 dabd
00000190: c8c1 5d3e fd3d e23d a6b1 cf3e 1068 443e
000001a0: f8af 7e3e 0c84 c7be dd93 333e b86e 98bc
000001b0: 28b4 e93d e817 983e a3e8 953e 418c a43d
000001c0: 017f 053f 1887 e13d b876 b23e 46ab 33be
000001d0: 5e2e 83be 9400 d73e 02a8 10be 9e0f 993e
000001e0: 7ac0 873e 826e b03e 7656 be3e b2ca d8be
000001f0: 00a4 78bb ede9 c23d 53b5 d23e 5356 f03e
00000200: 14e2 603e a6ed 903e 48e0 8fbd 46d8 bdbe
00000210: 232e d5be a02a 103e 7f79 53be 3dc4 893e
00000220: a52c 473e 1640 c53e 201e f93c 2c7d 413e
00000230: 36c1 a93e 98bc de3e 52e4 713d 3051 58bd
00000240: d02e 003e 1054 cabe a4b3 cc3e e0cb d4be
00000250: 9c46 8dbd d0c9 edbd a36c a53e c613 ddbe
00000260: 68c7 433e 8052 8ebc b8ee 863e 5f4f bd3d
00000270: 040e d6be c8f5 73bd f015 913d 3239 a23e
-0.25290248 0.07283194 0.134564 -0.37096173 -0.017950326 -0.2743675 0.30341035 -0.106283575
0.23058408 0.108198464 -0.38209105 0.34210432 -0.023564398 5.8591366e-05 -0.34282327 -0.15631719
0.22112215 0.20526583 0.11776209 -0.42730695 -0.4049143 0.2566734 -0.21700475 0.2894165
0.41610664 0.393118 0.3164635 0.6040996 0.33502924 -0.3054436 0.084864296 0.0478082
-0.08514419 0.37503523 0.43229443 -0.2538743 -0.43489373 -0.03503105 -0.37549043 0.07532209
-0.19205746 0.37325528 0.6636255 0.4200809 0.27632594 0.25242504 -0.36628813 0.15633711
-0.09570894 0.27173847 -0.39667204 -0.18110338 0.0428901 -0.06511742 0.3549173 -0.06531271
-0.11318359 -0.017067105 0.17309904 0.41987592 0.41027686 0.3890156 0.03206864 0.007373482
-0.30072147 -0.47181314 0.29201365 0.23179805 -0.3964017 -0.20133735 -0.4073329 -0.28199917
0.03675747 -0.39748397 0.12324613 -0.05000961 0.5870078 0.16616693 -0.040321797 -0.1709646
-0.4367723 -0.42904842 -0.12819108 -0.11572674 -0.25634968 0.33859608 0.46661666 0.18649416
-0.09452945 0.31247437 -0.008105725 -0.3765741 0.43015516 -0.23936114 0.043063432 0.010635662
-0.062244654 -0.17676234 0.15057462 -0.10654545 0.21655953 0.110469796 0.40565223 0.19180322
0.24871814 -0.3896793 0.17536874 -0.018607482 0.11411315 0.2970574 0.2927905 0.08034564
0.5214692 0.11012095 0.348562 -0.17545804 -0.25621313 0.4199263 -0.1412659 0.29894727
0.26514035 0.3445931 0.3717534 -0.42342144 -0.0037939548 0.09517274 0.41153964 0.4694086
0.21961242 0.2830631 -0.070252 -0.37079066 -0.41636762 0.1407876 -0.20651816 0.2690753
0.19450624 0.38525456 0.030409873 0.18895406 0.3315522 0.4350326 0.059055634 -0.0528118
0.12517858 -0.3951726 0.39980805 -0.41561794 -0.06898233 -0.11610758 0.32309446 -0.43179148
0.19119036 -0.017373323 0.26354003 0.092436545 -0.41807568 -0.059560567 0.07084262 0.31684262

fc1.bias f4 [32]
00000000: 560d a63e e40f 8fbe 4b45 97be fd1d 513e
00000010: 76e9 c33e 3798 97be 3ef6 f4be 4866 4f3e
00000020: 7cc5 f63e b896 d63b 5194 b1be e8ae c5bd
00000030: 540b ea3d c37c 85be 5f29 50be 5ba0 dcbd
00000040: 4415 91be f8ea 663e 4a24 cb3d c3b1 f53d
00000050: a5fc 9f3e 755a 4cbd 9297 08be c0af 8e3d
00000060: e306 783d d4d8 cbbd 0ba0 53be 1c2b 2a3e
00000070: 2312 9a3e 10f3 b33d 0851 c2be 5a1c 73bd
0.3243205 -0.2794181 -0.29545054 0.20421596 0.38264054 -0.29608318 -0.47844118 0.20253861
0.48197544 0.006548729 -0.3468347 -0.09652501 0.11427942 -0.26071748 -0.20328282 -0.10772773
-0.28336537 0.22550571 0.09919031 0.11996796 0.3124744 -0.049890954 -0.1333907 0.069671154
0.060553443 -0.09953466 -0.2066652 0.16618007 0.30091962 0.08786595 -0.37952447 -0.05935321

fc2.weight f4 [5, 32]
00000000: ee76 96be ef79 1abe 11e7 0a3e 526f f23c
00000010: 50ec 93bc bb21 09be 2e99 4fbd a05f 493c
00000020: 4ca9 29be b6d1 3c3d 9eac d93d 6d05 153e
00000030: 3d37 c6bd 5990 abbd 584b cabc d1aa 05be
00000040: 404d 633d be98 0fbe f217 023e 689d eb3d
00000050: 8a1f 863d f822 28be 5082 15be 1ff6 9bbd
00000060: 2a2b 81be 958d d43c 8ceb 21bd 7763 6bbe
00000070: 9753 ecbd 0ef5 ff3d 2b37 053e c969 3c3d
00000080: b933 2ebe 0e75 aa3d c298 d2bd fa9e ba3c
00000090: bf41 d7bd b9a0 1abe acbb e6bd 5ff1 c9bd
000000a0: e469 9abd bbd9 08be 1cd5 f9bd 19c6 343e
000000b0: 4245 f2bd 5dc9 ea3c 8540 cdbd 8bb5 57be
000000c0: a545 0bbe dec7 61be 0fcd 243e 5671 073e
000000d0: 7a23 13be 6dde 49be 19fe f03d 3d38 053e
000000e0: ae0e 293d 2015 79be 2028 94bd 228d 10be
000000f0: e1f0 4dbd 90d0 693d 6b7f 91bd bc6e 863d
00000100: 40c1 9e3a 0460 7d3d b3db 253e 6d7c 57be
00000110: 3094 4ebc e94b bbbd be01 c03d 48ab 863d
00000120: beab c8be e62a c33c c8c2 ab3c de69 a93d
00000130: ae67 0b3e 43b9 34be c858 ef3c 4ce3 edbd
00000140: d50c 293e a3ee 05be 6ccc 693d 9485 a9bd
00000150: 9a48 6cbc 41e7 9e3d 7040 46bd 4b57 123e
00000160: dc63 19be bf26 83bd 312f 113e b8d4 683d
00000170: ee93 163e 9fbf 183e 5bfe da3d b21b a0bc
00000180: 0027 87be 6ade b53d 8d01 30be f7da 23be
00000190: d33a d0bd 204f 5cbe 9785 7f3d ec0a 2c3d
000001a0: 329d 88be fdd8 3fbe 98cb d1bc f889 b7bc
000001b0: 5708 acbc 02aa 49bd be4f 7dbd 5572 a7be
000001c0: b85c 42bd 8c63 5f3a d3bf 173d b416 ca3d
000001d0: fca8 59bd a820 c9bd 94f1 04be 04db 003d
000001e0: 770a d83c 3b15 0ebe ecc8 03bd efb9 57bd
000001f0: e51e d63d 85a4 abbd 3ca1 0fbe ef6d 49bd
00000200: f005 f1bc c2d9 ca3d 6efe bd3d d5dd db3d
00000210: 30f8 dabc 0621 833e 0ea9 9d3c 0605 ff3d
00000220: c29a 863e fc07 0bbe fc9e 8c3d d4b0 263d
00000230: 0908 413e 5d18 a03d ae7b ed3d a89a 403e
00000240: 207d 343c 4d00 9a3d 37d8 25bc 3e6c 88bd
00000250: eeb9 3d3e 7d88 64bd 866a 373e 2386 c4bd
00000260: a108 243d 8196 503e 8f1f 2bbe 9f17 503d
00000270: 263b 5a3e 6a28 dd3d 825e 443d 809c f83d
-0.2938761 -0.15085576 0.13564707 0.029594097 -0.018057019 -0.13391773 -0.050683193 0.012290865
-0.16568488 0.046098433 0.10628627 0.14552851 -0.096785046 -0.083771415 -0.02469413 -0.13053443
0.055493593 -0.1402311 0.12704447 0.11504632 0.06548984 -0.1641959 -0.14600492 -0.07615303
-0.25228244 0.025946418 -0.039531276 -0.22987162 -0.11539381 0.12497912 0.13009326 0.045999322
-0.17011918 0.08323108 -0.102830425 0.022780884 -0.10510587 -0.15100373 -0.11266264 -0.09860491
-0.07539728 -0.13364308 -0.121988505 0.17653693 -0.11829616 0.02866047 -0.10022072 -0.21065347
-0.13600786 -0.220489 0.16093849 0.13226828 -0.14369002 -0.19713755 0.11767215 0.13009734
0.041273765 -0.24324465 -0.07234216 -0.14116338 -0.05027855 0.057083666 -0.07104381 0.0656409
0.0012112036 0.061859146 0.1619709 -0.21043558 -0.012608573 -0.09145338 0.09375332 0.06575638
-0.3919353 0.023824167 0.020966902 0.08272146 0.1361377 -0.17648797 0.029217139 -0.11615619
0.16508801 -0.13079314 0.057079718 -0.08277431 -0.014421606 0.07758952 -0.048401296 0.14291112
-0.149795 -0.064038746 0.14178158 0.05684349 0.14704868 0.14916848 0.10693046 -0.019544456
-0.26396942 0.08880313 -0.17188092 -0.16001497 -0.1016747 -0.21514559 0.06238326 0.042002603
-0.2668243 -0.18735118 -0.025609776 -0.022404656 -0.02100007 -0.049234398 -0.061843626 -0.32704416
-0.047451705 0.00085216085 0.037048172 0.098676115 -0.05313967 -0.09820682 -0.1298278 0.03145887
0.026372178 -0.13875286 -0.032174036 -0.052667554 0.104551114 -0.08380989 -0.1402635 -0.049177106
-0.029421777 0.09904815 0.09277044 0.107356705 -0.026729673 0.25611132 0.01924565 0.1245213
0.26289946 -0.13577265 0.06866261 0.04069598 0.18850721 0.07817147 0.11595856 0.18808997
0.01101616 0.075195886 -0.01012235 -0.066612706 0.18527958 -0.055794228 0.17911729 -0.09595897
0.04004729 0.20369913 -0.16711257 0.050803777 0.21311626 0.10798724 0.047941692 0.12139225

fc2.bias f4 [5]
00000000: 7a55 63bd c789 513c 61cb 413e aa6b 31be
00000010: e87d 263d
-0.05550144 0.012789196 0.18925239 -0.17326227 0.040647417
