Models/multi_agent_rl_0.pt (torch, 3959 bytes, 4 tensors)

fc1.weight f4 [32, 5]
00000000: f2d3 a63e bd4b b1be 489b 2c3e 2c81 673e
00000010: bf16 d2be 7892 bd3e 74c2 41be 48fa b43e
00000020: 3078 44be 9c32 2cbe 383a cdbe 7a41 af3e
00000030: 3c27 8cbe 409c ecbd 4015 be3e 0ba6 c8be
00000040: 3fd0 7bbe 08d6 933d 265d 0bbe d031 693e
00000050: d836 adbe 2691 b93e 12e4 58be 16ad b7be
00000060: 1e65 49be a406 c43e 0697 b73d aa97 efbc
00000070: 6cca 2d3e e4df b13e fc97 163d f66c d53d
00000080: 26ef 9bbe 0866 123e ee10 e1be dbf4 383e
00000090: df9b de3c 1fe7 47be b079 b53e 2afe ac3e
000000a0: 100c 8fbd 02bf 93be b0b8 d73e 7c7e e43e
000000b0: 9834 a2bd 6540 7abd f5d2 5b3e 69ef 8e3e
000000c0: 0bc2 96be e0d9 2abc 9c7d b93e 2a74 26be
000000d0: 3c18 a53e c0da c83d f059 5b3d 01da 31bc
000000e0: 22c1 1dbe 8e9b 61be 1221 d0be 9a81 35be
000000f0: 8ae0 a43e 80f0 38bd 6ed5 d5be fc86 e7bd
00000100: dd60 6dbe 4891 66be c452 973e 69d4 3d3e
00000110: 4e4f a33e c607 37be f0a5 bd3e 84fa df3e
00000120: 2d0a 54be 7cc4 063e d0d4 583e aa17 693e
00000130: ed89 d9bd ff9f 99be 4422 b6bd c3f2 62be
00000140: c76d 2fbe c888 1a3d 60b0 f53e 4c97 993e
00000150: c001 ca3c 9873 a5be 5018 c63d b801 b4be
00000160: f0d7 14be 4e6a b03e 6ae9 97be 18b8 2d3d
00000170: 8863 473e 101f 3d3d 30bf d13d a30b 54be
00000180: d96d b8be 6089 ae3e 6cbd 8b3e f897 85be
00000190: f53f 9a3d 98b9 0e3e 0a0c aebe fca6 4e3e
000001a0: c0fa f23d 4778 63be cadd a63c fcb9 95bd
000001b0: 4c97 4e3e b43c 6abe 6ecd ae3e 37fd 903e
000001c0: 194d 0e3f c061 553c c066 b03c c9c7 723e
000001d0: 58c4 d4be 6c10 90bd 40a6 4c3e 00af 8e3b
000001e0: 8297 0e3e 1fde 903e 0023 933e 3c0f e03e
000001f0: 62fc 01be ffec 10be 27e1 173e 9198 db3e
00000200: a49a 163e c2d9 bbbe 8a23 a9be 1e1b 91be
00000210: c08c 753c 805f 403e a0de c33e ad18 843d
00000220: 19c9 9a3e 96f7 d03d d0c8 3f3e 14a3 393e
00000230: fc52 813e dd8f 57be 6d8a 8f3e ecc7 b93e
00000240: 1c6d 413e 88f9 c3be 08ad 2bbe 7017 c93c
00000250: 2874 bbbe fb04 85be 1f48 783e 188f 153e
00000260: 5211 cebd 8c8f abbe 2ebe 14be 1eb7 df3e
00000270: f983 173d 2e94 d33e 7442 00be 2c7d 973e
0.32583576 -0.34628096 0.1685611 0.22607869 -0.4103298 0.3702581 -0.18921834 0.353472
-0.19186473 -0.16816181 -0.4008348 0.34229642 -0.27373683 -0.1155324 0.37125587 -0.3918918
-0.24591158 0.072185576 -0.13609752 0.22772908 -0.33830905 0.36243552 -0.21180752 -0.35874242
-0.1966748 0.38286316 0.08964352 -0.029247124 0.16971749 0.34741127 0.036766037 0.10421173
-0.30455893 0.14296734 -0.4395823 0.18062155 0.027173935 -0.1952176 0.35444403 0.33787662
-0.069847226 -0.28856665 0.42133093 0.4462775 -0.07920188 -0.061096568 0.21467192 0.2791703
-0.29444918 -0.010427922 0.36228645 -0.1625525 0.32245052 0.09807348 0.053552568 -0.010855199
-0.15405706 -0.22031996 -0.4065023 -0.1772522 0.3220256 -0.045151234 -0.41764396 -0.11305043
-0.23181482 -0.22516358 0.29555333 0.1853806 0.31896442 -0.17874059 0.37040663 0.43745816
-0.20707007 0.1316089 0.21174932 0.22762933 -0.106220104 -0.3000488 -0.088932544 -0.22162919
-0.1713172 0.0377281 0.47986126 0.29998243 0.024659038 -0.32314754 0.09672606 -0.3515756
-0.14535499 0.34456104 -0.29670268 0.042411894 0.19471562 0.0461722 0.10241544 -0.20707564
-0.36021307 0.34089184 0.27292955 -0.26092505 0.0753173 0.13937986 -0.3399356 0.20180887
0.11864233 -0.22213851 0.02036943 -0.07310864 0.20174903 -0.22874719 0.34141105 0.28318188
0.5558639 0.013023794 0.02153337 0.23709024 -0.41556048 -0.07034382 0.19985294 0.0043543577
0.13924983 0.28294465 0.2873764 0.43761623 -0.12693933 -0.14152907 0.14831983 0.42889836
0.14707428 -0.36689574 -0.33034927 -0.28341 0.014987171 0.1878643 0.38255787 0.06450019
0.3023155 0.10203473 0.18728948 0.18128616 0.25258625 -0.21050973 0.28035298 0.3628534
0.18889278 -0.38276315 -0.16765225 0.024547309 -0.36612058 -0.25980362 0.24246262 0.14605367
-0.10061897 -0.33507955 -0.14525673 0.43694395 0.036991093 0.4132399 -0.1252535 0.29587686

fc1.bias f4 [32]
00000000: 72fa 9fbe a022 c63e d082 fbbc 0285 1cbe
00000010: 32f2 cabe 8bcd c13e c2e2 cc3e 7853 c2be
00000020: 6087 eabd 052a 99be 2aa0 7c3d 2c2b 59be
00000030: 4c5d adbd 8ce0 bf3e b64d 2e3d 0ca2 b93e
00000040: b506 673e 9421 9ebe 08c9 a93d 683a 413d
00000050: cefe 05bf da94 223e b504 8ebe 4f16 a1bd
00000060: a11d efbe e1ad e7be 9095 9e3e 7011 793e
00000070: 894a 5f3e ed71 73be 778b 73be fae1 7d3e
-0.31245762 0.38698292 -0.030702025 -0.15285113 -0.39637905 0.3785213 0.40016752 -0.37954307
-0.11451602 -0.2991487 0.06167618 -0.21207875 -0.084650606 0.37476003 0.04255458 0.36256444
0.22561152 -0.30884993 0.08290297 0.04717484 -0.52341926 0.15877095 -0.27737966 -0.07865583
-0.46702293 -0.45249847 0.30973482 0.24323058 0.21805777 -0.23773928 -0.2378367 0.24793234

fc2.weight f4 [5, 32]
00000000: 3063 12bd 82be 0d3e d853 51bd a070 f5bb
00000010: 68e6 5c3d c389 32be 2506 b33c 8ca5 73bd
00000020: 4e00 cd3d 56fc 003e 600b f63d 875e 9d3d
00000030: e902 34be 7428 8f3c 2515 273e ebd6 463c
00000040: 7d5d 073d d4f6 23be e8f0 cf3c 8053 903a
00000050: 789d 863d 571d 93bd b7f0 e23d 3d48 c93d
00000060: dc21 e1bd d365 f73d beec ab3d 1af8 f6bd
00000070: 36ba e53d a794 243e fd98 b33d f46c 343d
00000080: 2924 04be a5c5 48bd da1a 19be c042 6dbd
00000090: b022 803c 7547 32be a8df 18be e2a1 04bb
000000a0: 4701 313e 1ee8 26be e533 98bd 2c53 95bd
000000b0: 3aff 08be fa01 823d efb3 a7bd 6697 5ebe
000000c0: 77b2 84bd ee04 17be 81ab 1bbe 40e2 ca3b
000000d0: a6a8 ccb9 3d15 51be 2f9a 01be 8adb 3e3d
000000e0: 4a01 cabd 3d4e 18be 5092 b13c 8e2b 573d
000000f0: 492d f8bd 36fe 03be 1c12 30be 6604 2fbe
00000100: f4e0 163e d183 e13d 088e 273d 97ea abbd
00000110: caf4 de3d 8977 7d3d 6d84 3c3d b98c 123e
00000120: 40b0 86bb ec10 3fbe 55e0 703d c378 363c
00000130: 716a 943d ebcf 30be 0594 d83d cbef 8c3e
00000140: 5e66 13be 008d 04bb 4457 07bd 44be 0ebe
00000150: 5a95 8d3b 6c51 18bb 430f 2bbe cba8 8b3e
00000160: 5e7a 66be 8ffe 03bd 9009 20be 6d42 1bbe
00000170: 2146 85bd 3c04 463d a507 113e 6c29 ff3c
00000180: 5762 633c 1e43 263e 51e7 f1bd 0779 15be
00000190: 8d3f 143e 4611 3f3e 3a8e 2bbd 883f 113e
000001a0: 47dd 333e 3b5c 3f3e f2d4 e23d 6592 75bd
000001b0: f01c 92bd 2d81 40bd 133d 4e3e 8cc5 6cbd
000001c0: 5862 3a3e e83f cd3c fe33 2dbe 2d97 d9bd
000001d0: 0f6b 443b ccd4 b3bc ad53 693e 0665 cfbd
000001e0: 3dcd f4bc ec90 d4bc 78ee b43c 79a3 f23c
000001f0: 2023 e0bc f0e2 dfbc fed5 283e d829 ec3d
00000200: d637 96bd ec24 bebd 8041 d53c fef5 e73d
00000210: 18b5 19be ef3e 39be 4eb9 e5bd 2ca5 debd
00000220: 89ec c2bd c8e9 adbb c5f1 a8bd 52c8 10bb
00000230: 34e4 05be aab7 86be 4fdd 463d 8924 143e
00000240: ab7a 35bd 11b4 c6bd 0803 35bd 2c2d 073d
00000250: a423 d33d 47bb 433d 3583 43be d634 80bd
00000260: b038 f5bd 1a2d 96be 3868 763d d102 36be
00000270: 8745 943d c2a5 f5bd f578 82be ae9a 9bbd
-0.035739124 0.13842204 -0.05110535 -0.0074902326 0.05393067 -0.17435364 0.021853516 -0.05948405
0.10009824 0.12596259 0.12013888 0.07684045 -0.17579235 0.017475344 0.1631666 0.012136201
0.03304814 -0.16012126 0.025383428 0.0011011213 0.065730035 -0.071833305 0.11081069 0.098282315
-0.10992786 0.12079968 0.08394764 -0.1205904 0.112171575 0.16072331 0.087694146 0.04404922
-0.12904419 -0.049016614 -0.1495165 -0.057924986 0.01564154 -0.17410071 -0.14929068 -0.0020238091
0.17285644 -0.16299483 -0.07431773 -0.072912544 -0.13378611 0.06348033 -0.081886165 -0.21737441
-0.06479352 -0.14747974 -0.15202142 0.006191522 -0.00039035565 -0.20418258 -0.12656473 0.046596088
-0.09863527 -0.14873596 0.021676213 0.05253177 -0.121180125 -0.12889943 -0.17194408 -0.17091522
0.1473425 0.1101147 0.040906936 -0.08394354 0.108865336 0.061881576 0.04602473 0.14311494
-0.004110366 -0.18658799 0.05880769 0.01113719 0.072468646 -0.17266814 0.105751075 0.27526698
-0.14394519 -0.0020225644 -0.033042207 -0.13939768 0.0043207826 -0.002324189 -0.1670504 0.27277216
-0.22507617 -0.032225188 -0.15628648 -0.15162058 -0.06507517 0.048343882 0.14163072 0.031147681
0.0138784265 0.1623654 -0.11811698 -0.1459695 0.14477368 0.18658933 -0.041883685 0.14184391
0.1756488 0.18687527 0.11075772 -0.059954066 -0.07134426 -0.04699819 0.20140485 -0.057805583
0.18201578 0.025054887 -0.16914365 -0.106245376 0.0029971038 -0.021952055 0.22785826 -0.101266906
-0.029883021 -0.02594801 0.022086367 0.029618965 -0.027360499 -0.027329892 0.16487882 0.115314186
-0.073348686 -0.09284386 0.02603221 0.11326216 -0.15010488 -0.18090414 -0.11216985 -0.10871348
-0.09517772 -0.00530741 -0.08249239 -0.0022092056 -0.13075334 -0.26312 0.0485509 0.14467062
-0.04430644 -0.09702314 -0.044192344 0.033002064 0.10309532 0.047786023 -0.1909302 -0.06260078
-0.11973703 -0.29331285 0.060157984 -0.17774512 0.07239824 -0.119945064 -0.25482908 -0.07597862

fc2.bias f4 [5]
00000000: 5bd5 bcbb eccd a1bd e5c5 203e 63e1 4a3e
00000010: 489e ecbc
-0.0057627386 -0.079006046 0.15700491 0.1981254 -0.028884068
