Models/single_agent_rl.pt (torch, 3949 bytes, 4 tensors)

fc1.weight f4 [32, 5]
000000 4e 8e b6 be 28 4d 02 bd 24 8b 55 3e 86 42 99 be
       -0.35655445 -0.031811863 0.20853859 -0.29933566
000010 d0 02 4b bd 19 be 51 3e 7c a9 c2 3e c8 74 fb 3c
       -0.04956323 0.20482673 0.3801993 0.030695334
000020 36 d3 bd 3e 48 41 d6 3e f9 7e 6f be d9 53 43 3e
       0.37075204 0.4184668 -0.2338828 0.19074954
000030 c6 3e db be dc 11 cf 3e 08 00 93 3d 68 53 1c bd
       -0.4282133 0.40443313 0.0717774 -0.03816548
000040 af 90 6a be ae 8d 54 be 60 a2 44 3e c4 33 45 3e
       -0.22906755 -0.20757172 0.19202566 0.19258028
000050 4e bb 19 3e 3d cd b8 be 43 c1 ae be 98 ac a3 be
       0.15012857 -0.36094084 -0.34131822 -0.31967616
000060 1e 45 45 be e4 55 8c bd a0 eb bf 3d 22 2d c9 be
       -0.19264647 -0.0685232 0.09371114 -0.39292246
000070 b0 df e7 bd 34 bb 7b 3e 29 63 ad 3d de 4a 82 be
       -0.11321962 0.24583131 0.08466179 -0.25447744
000080 24 ac fe bd e0 b6 b6 bd 94 92 40 3e 75 42 1b 3e
       -0.12435177 -0.089215994 0.18805915 0.1516207
000090 a5 ba 00 3e 6f 4f 52 3e f0 8c 6f bd a0 0d 01 3c
       0.12571199 0.20538114 -0.058484018 0.007876784
0000a0 e0 c6 03 3d 65 2e b6 be 88 b6 29 bd c4 6d c1 be
       0.032172084 -0.3558227 -0.04143384 -0.37779057
0000b0 50 9f 8e be c6 b5 aa be 4a af d8 be 7f 7c 66 be
       -0.2785592 -0.33341807 -0.42321235 -0.22508429
0000c0 b4 2f be 3e b2 cb af be d9 2c 63 bb aa 47 31 be
       0.3714577 -0.34335095 -0.0034664182 -0.17312494
0000d0 f6 24 8f bd 12 25 15 be 72 4c 9c be 76 a4 55 be
       -0.069894716 -0.14564922 -0.30527073 -0.20863518
0000e0 00 ff a3 3d 80 fa c2 3d b0 d6 b2 bc 1e 75 8a be
       0.08007622 0.09520435 -0.021830887 -0.27042478
0000f0 6e 43 ea 3c 6b be 18 3e da 03 3b be 74 3c a2 bd
       0.028596606 0.14916389 -0.18263188 -0.07921687
000100 80 fa 88 bb 46 1d 86 3e 11 7a 93 3d 90 25 07 3d
       -0.0041802526 0.2619421 0.07201017 0.032994807
000110 f0 da 19 3e 42 da a4 3e 1c 0e f4 bd d7 4c 77 be
       0.15024924 0.32197767 -0.11916754 -0.24150406
000120 69 94 8c be e0 4b 4c 3e 16 bb b1 be 44 97 4b be
       -0.27456978 0.19950819 -0.34713048 -0.19881922
000130 08 f1 2e 3e 2e d9 d0 be e6 60 c6 be 00 23 ab 3e
       0.17084134 -0.40790695 -0.38745803 0.3342514
000140 d0 cc 75 bc a8 fe 9b 3e c2 49 c4 3e 60 ef d5 3e
       -0.015002444 0.30467725 0.38337523 0.4178419
000150 0c 6f 46 be e0 40 f2 bc 58 22 71 be 6c bb 6e 3e
       -0.19378299 -0.02957195 -0.23548257 0.23313683
000160 e0 b8 d4 bc 20 3a b0 bd af 85 9e 3e e3 cf 56 be
       -0.025967062 -0.086048365 0.30961367 -0.2097774
000170 f7 ab 80 be 5c 68 51 3e 44 1b 10 3e 8c 51 ce bd
       -0.251312 0.20449966 0.14072901 -0.100741476
000180 b6 f6 b5 be 10 34 7b 3e e3 2a 72 be 00 a3 4a 3c
       -0.35539788 0.24531579 -0.23649172 0.012367964
000190 a4 9b e4 3e 6f e2 aa be a4 a3 81 bd 27 a5 ab be
       0.44649994 -0.3337588 -0.0633004 -0.3352444
0001a0 80 ac 4d bc f6 89 bf 3e 19 03 9d be 53 74 a7 3e
       -0.012553334 0.37409943 -0.30666426 0.32705936
0001b0 b2 fa ae 3e 60 fc 7d 3d 56 65 ba be dc d0 26 be
       0.3417564 0.06200826 -0.36405438 -0.16290611
0001c0 d0 1e 17 be 0f 0d ab be ee 71 b5 3e ee c7 30 be
       -0.14757848 -0.334084 0.35438484 -0.17263767
0001d0 30 3e 1f bd 45 3a a0 be 1a 30 85 3e 36 ed 86 3e
       -0.038877666 -0.31294456 0.2601326 0.26352853
0001e0 4e 85 84 3e dc eb ea 3e d1 e6 cd 3e 8f eb d7 be
       0.25882953 0.4588307 0.4021516 -0.42171904
0001f0 ac ad c7 be a8 c5 52 be b7 b0 07 be 2c c5 f5 bd
       -0.3899969 -0.20583212 -0.13251005 -0.12000498
000200 90 ff f2 3d c0 ed 53 3e 24 84 6d bd b9 cb a9 3e
       0.11865151 0.20696163 -0.057987347 0.3316324
000210 7e 7e 86 be 32 04 cc be 98 db d5 3d 0c e8 e2 bd
       -0.2626838 -0.3984695 0.10442275 -0.11079416
000220 4a c4 93 be 74 8a 0b 3e f4 c2 60 3e 6f 6f b8 be
       -0.28860694 0.13627034 0.21949369 -0.36022517
000230 e5 c1 0b bc 38 3d bf 3d ed 53 88 be c8 18 e3 bd
       -0.008530115 0.093378484 -0.2662653 -0.11088711
000240 56 c2 8d 3e 98 c8 a4 be 4e 1a a0 3e 80 34 40 bd
       0.2768733 -0.3218429 0.3127007 -0.046925068
000250 e0 c6 2e 3d 12 be 2a be 98 55 bb 3e df 80 80 3e
       0.04267013 -0.16674069 0.3658874 0.2509832
000260 bd 32 05 3e a0 b1 1d be 18 10 43 3d a8 83 a7 3e
       0.13007636 -0.1539979 0.04762277 0.32717633
000270 d2 e1 b8 3e e6 0a df 3b 5c ff c8 be f8 a4 d4 3d
       0.36109787 0.006806719 -0.39257324 0.10383028

fc1.bias f4 [32]
000000 48 10 a3 bd d2 b3 a2 be 0b c7 29 3e 5f e1 ec 3e
       -0.0796209 -0.31777817 0.16579835 0.46265694
000010 53 1e 5b 3e f0 9c 9e be 71 10 25 bd 3f 80 a1 be
       0.21398287 -0.3097911 -0.040298883 -0.31543157
000020 f6 7c 0f be ac 37 ef bd 8c f7 a9 3e 0c cd 4d be
       -0.14012513 -0.116805404 0.33196676 -0.2009775
000030 52 da af be ef a2 15 3e 80 71 1c 3d b4 e2 80 be
       -0.34346253 0.14612935 0.03819418 -0.2517296
000040 83 60 a0 3e e8 69 04 3d a4 2f 8d be 38 4e d8 3d
       0.31323633 0.032327563 -0.2757541 0.10561794
000050 8d 63 dc be da 6d 85 be d0 b6 0f 3d 98 df 48 3d
       -0.430447 -0.26060373 0.035086453 0.04904136
000060 2a 9b bc be a3 92 90 3e ef a6 50 3e 20 2c c4 be
       -0.3683713 0.28236875 0.2037618 -0.38314915
000070 5b 53 f5 bd 85 76 61 be 6f 8a 56 3e 23 88 fe 3c
       -0.119787894 -0.22017868 0.20951246 0.031070774

fc2.weight f4 [5, 32]
000000 8f dc 16 3e ba 68 1e bd df 44 af bc 71 61 d6 3d
       0.14732574 -0.038674094 -0.021395145 0.10467804
000010 76 71 5e bc a6 63 f8 3d ca 0d 80 3d 84 ae d3 bd
       -0.013576856 0.121283814 0.0625263 -0.103360206
000020 90 ad 37 3d f0 03 bd 3c ed a5 41 3e e2 a4 c8 3d
       0.044843256 0.023073167 0.18910952 0.09797074
000030 25 c1 5c bc f8 b4 51 bd a6 60 96 bd a0 4e f6 bc
       -0.013473784 -0.051197976 -0.07342653 -0.030066788
000040 4c a9 a7 be ef 46 06 be c2 1d 69 3e b8 f8 60 bd
       -0.3274635 -0.13112997 0.22765258 -0.054924697
000050 43 4d 0f bd 87 d8 9b bd c8 48 64 bd 00 8f f7 3b
       -0.034985792 -0.07609659 -0.055733472 0.0075548887
000060 22 7e 18 be a2 2d ef bc 33 1d ed ba f2 2f d3 bd
       -0.14891866 -0.029196564 -0.0018090367 -0.10311879
000070 30 c6 1c 3e 40 6f 25 be 7d 9c 87 be 4f 32 08 be
       0.15309978 -0.1615572 -0.2648658 -0.13300441
000080 c0 86 88 bc 18 00 cb 3d e2 c4 07 3e 1a d0 64 3d
       -0.016665816 0.09912127 0.13258699 0.055862524
000090 6f ed c9 bb 18 66 2b 3d d3 1e 1e be 1c 01 58 3c
       -0.0061623375 0.04184541 -0.15441446 0.013183858
0000a0 64 ef 04 be 74 09 70 bd 2c 8d ea bd 90 47 d0 3c
       -0.12981945 -0.058602765 -0.11452708 0.025424749
0000b0 63 4f 97 bd 8a 13 f4 3d 20 1b 53 3c 21 17 22 be
       -0.07388189 0.11917789 0.012884885 -0.15829135
0000c0 10 5a 94 3e 70 55 5a bc e4 be ad 3d 12 c5 17 be
       0.28974962 -0.013326034 0.08483675 -0.1482127
0000d0 d9 9c 0c 3e 5c 13 4e 3d 58 db d7 3c b8 cb ea bd
       0.13731708 0.05031143 0.026349708 -0.114646375
0000e0 96 b6 9c 3d 76 c8 28 3d 83 84 67 3e 0d 2d b8 bd
       0.07652013 0.0412068 0.22609143 -0.08992968
0000f0 13 71 32 3d 84 4c 92 3d a6 2c 3b 3e b5 99 4e 3e
       0.043564867 0.071435004 0.18278751 0.20175822
000100 82 f9 a4 3d 3c 64 64 be 49 ba 0c 3d a0 ac 8a 3e
       0.08055402 -0.22303861 0.034357343 0.27084827
000110 b1 45 b5 bc 4d 13 ce bd 3f 25 15 3e b1 af c7 bd
       -0.022127958 -0.10062275 0.1456499 -0.09750307
000120 00 62 43 3d 2d 70 ca bd a9 f0 cf 3c b3 9a 31 be
       0.047700882 -0.09884677 0.02538331 -0.1734417
000130 ce 27 e3 bc 1a 2a b2 3d 4b 92 15 3e 03 27 c6 bd
       -0.027728941 0.086994365 0.14606588 -0.0967541
000140 16 be 31 bd b9 5b 0b 3e b8 10 91 3e 48 df 6d 3d
       -0.04339417 0.13609208 0.28333068 0.058074266
000150 7a 2e 96 3e 62 ec 1f 3e b8 4f 82 3d 5c 50 05 3d
       0.29332334 0.15617517 0.063628614 0.03254734
000160 39 ba 89 be 07 d1 28 3e f2 8e 7e bd be ec b1 3d
       -0.2689989 0.16485988 -0.062148042 0.08687733
000170 14 82 4e 3d 20 54 24 bd 6d 2f 0a 3e 6a 59 ee 3d
       0.05041702 -0.04011929 0.13494654 0.11638148
000180 40 4b 13 bb 26 4a 83 bd 95 cb 2e be 1d 01 ff 3c
       -0.0022475272 -0.06410627 -0.17069848 0.03112846
000190 0b 1f 87 bc e6 32 33 be 2e b3 cc bc 16 38 86 be
       -0.016494295 -0.17499885 -0.024987783 -0.26214665
0001a0 a0 72 c2 bd b6 95 fb 3d d3 12 92 bd f3 cb 31 3e
       -0.09494519 0.122844145 -0.07132497 0.17362957
0001b0 20 81 38 be 5a 63 2f 3d ee 68 a4 bd eb 1a 05 3e
       -0.18018007 0.04281936 -0.08027826 0.1299855
0001c0 57 57 bc be 76 8c cf 3d 6d 4d fb 3d 0e 99 87 3d
       -0.36785385 0.10134213 0.12270627 0.0662099
0001d0 cc 41 f9 3c ec 01 a3 3d d8 af e9 bc ac 2b 50 3d
       0.030426882 0.07959351 -0.028526232 0.0508229
0001e0 1c 9e 68 bd ce 77 d1 3d e8 2d 86 be 89 37 0f be
       -0.05679141 0.10227929 -0.262069 -0.13986029
0001f0 d2 3c 43 be b6 77 ed 3d 82 83 93 bd 7f 7f bc bd
       -0.1906617 0.11595099 -0.072028175 -0.092040055
000200 4a b3 9a 3d 10 e0 ad bd 05 a3 15 be 62 e4 56 be
       0.07553728 -0.08490002 -0.14612968 -0.20985559
000210 21 ff 1c be 80 73 a0 bd d6 1e d0 bc eb 80 f4 3d
       -0.15331699 -0.0783453 -0.025405329 0.11938652
000220 46 dc cc 3d 85 63 a7 bd f4 a0 23 be f8 9d 85 bd
       0.10002951 -0.08173279 -0.15979367 -0.06524271
000230 56 ce 10 3e 4b 88 ec 3d 1d 98 10 3e 50 2a 41 3d
       0.14141211 0.11549433 0.14120527 0.047159493
000240 2f f7 4e 3d 60 d7 a8 bb 2c 05 17 be ce 73 af 3d
       0.0505287 -0.005152628 -0.14748067 0.0856701
000250 40 51 14 bd fb 97 0e be 3b db 30 be e6 e5 b6 3d
       -0.0362103 -0.13925163 -0.1727113 0.089305684
000260 6b 56 db 3d 00 57 d2 3d 6e 9e 85 3d a2 49 94 bd
       0.10709842 0.102705 0.06524359 -0.07240607
000270 81 d3 70 3d 68 3c e7 3c a4 7e d0 3d 85 0d 0f be
       0.058795456 0.028227046 0.10180405 -0.13970001

fc2.bias f4 [5]
000000 ec 56 0c bd ff 9b ce 3d eb 3d dd 3d e7 f8 8a bd
       -0.034262583 0.10088348 0.108028255 -0.067857556
000010 cc 50 b5 3d
       0.088533014
